…
cked torch.Size([])features.transition1.conv.weight torch.Size([128, 256, 1, 1]).... features.denseblock4.denselayer32.conv2.weight torch.Size([32, 128, 3, 3])features.norm5.weight torch.Size([1664])features.norm5.bias torch.Size([1664])features.norm5.running_mean torch.Size([1664])features.norm5.running_var torch.Size([1664])features.norm5.num_batches_tracked torch.Size([])classifier.weight torch.Size([1000, 1664])classifier.bias torch.Size([1000]) View model structurefeature = torch.nn.Sequential(*list(model.children())[:]) # densenet169print(feature) Out: Sequential( (0): Sequential( (conv0): Conv2d(3, 64, kernel_size=(7, 7), stride=(2, 2), padding=(3, 3), bias=False) (norm0): BatchNorm2d(64, eps=1e-05, momentum=0.1, affine=True, track_running_stats=True) (relu0): ReLU(inplace) (pool0): MaxPool2d(kernel_size=3, stride=2, padding=1, dilation=1, ceil_mode=False) (denseblock1): _DenseBlock( (denselayer1): _DenseLayer( (norm1): BatchNorm2d(64, eps=1e-05, momentum=0.1, affine=True, track_running_stats=True) (relu1): ReLU(inplace) (conv1): Conv2d(64, 128, kernel_size=(1, 1), stride=(1, 1), bias=False) (norm2): BatchNorm2d(128, eps=1e-05, momentum=0.1, affine=True, track_running_stats=True) (relu2): ReLU(inplace) (conv2): Conv2d(128, 32, kernel_size=(3, 3), stride=(1, 1), padding=(1, 1), bias=False) ) (denselayer2): _DenseLayer( (norm1): BatchNorm2d(96, eps=1e-05, momentum=0.1, affine=True, track_running_stats=True) (relu1): ReLU(inplace) (conv1): Conv2d(96, 128, kernel_size=(1, 1), stride=(1, 1), bias=False) (norm2): BatchNorm2d(128, eps=1e-05, momentum=0.1, affine=True, track_running_stats=True) (relu2): ReLU(inplace) (conv2): Conv2d(128, 32, kernel_size=(3, 3), stride=(1, 1), padding=(1, 1), bias=False) ) ... ... (denselayer32): _DenseLayer( (norm1): BatchNorm2d(1632, eps=1e-05, momentum=0.1, affine=True, track_running_stats=True) (relu1): ReLU(inplace) (conv1): Conv2d(1632, 128, kernel_size=(1, 1), stride=(1, 1), bias=False) (norm2): BatchNorm2d(128, eps=1e-05, momentum=0.1, affine=True, track_running_stats=True) (relu2): ReLU(inplace) (conv2): Conv2d(128, 32, kernel_size=(3, 3), stride=(1, 1), padding=(1, 1), bias=False) ) ) (norm5): BatchNorm2d(1664, eps=1e-05, momentum=0.1, affine=True, track_running_stats=True) ) (1): Linear(in_features=1664, out_features=1000, bias=True)) 基本上可以看出总体分为两个部分，这两个部分对应的名字可以用print(model._modules.keys())查询到： # 查询结果odict_keys(['features', 'classifier']) 之后可以直接用model.features直接只调用features部分，直接将分类部分抛弃掉。 加载部分预训练模型其实大多数时候我们需要根据我们的任务调节我们的模型，所以很难保证模型和公开的模型完全一样，但是预训练模型的参数确实有助于提高训练的准确率，为了结合二者的优点，就需要我们加载部分预训练模型。 #加载model，model是自己定义好的模型resnet50 = models.resnet50(pretrained=True) model =Net(...) #读取参数 pr
…
